StockForecaster/model_weights.pth (torch, 3076 bytes, 5 tensors)

lstm.weight_ih_l0 f4 [16, 1]
0.16661786 -0.77708465 0.32649925 -0.1360815 0.13536729 -0.48973048 0.06005123 0.10564775
-0.6586514 -0.15791492 0.11718201 -0.23406044 -0.50901467 -0.8587825 0.12814161 0.12208628
00000000: df9d 2a3e 05ef 46bf e92a a73e f358 0bbe
00000010: b99d 0a3e f4bd fabe 47f8 753d d95d d83d
00000020: 619d 28bf 73b4 21be 1ffd ef3d 8aad 6fbe
00000030: c94e 02bf 2bd9 5bbf 8e37 033e 5f08 fa3d

lstm.weight_hh_l0 f4 [16, 4]
0.4396266 -0.578436 0.5749093 0.28765896 0.7658986 0.01127324 -0.29567963 0.76546824
-0.3454169 0.28808203 0.057920396 -0.13554452 0.18218707 -0.3394645 -0.12550953 0.3421466
0.1410386 0.1208526 0.42232937 -0.13247517 0.45220926 -0.29912576 0.46204552 0.43154705
-0.19260448 -0.15680332 -0.32880342 0.07692097 0.6974741 -0.5399022 -0.36237907 1.1755683
0.043604646 -0.2972011 0.38601887 -0.28963444 -0.23420158 -0.22533245 0.20873253 -0.11583922
-0.38266155 0.7468532 0.22694461 -0.43251348 0.221879 0.006221911 -0.4241469 0.4108758
0.36425897 -0.1940816 0.2802776 0.4255574 0.86233854 0.10253556 0.49921682 0.17261755
-0.4475681 -0.53945297 0.38538074 0.31629935 0.80672157 -0.27208018 -0.14872548 0.75643843
00000000: bd16 e13e 6214 14bf 422d 133f 0948 933e
00000010: ee11 443f 65b3 383c 5263 97be baf5 433f
00000020: 7cda b0be 7d7f 933e f03d 6d3d 2fcc 0abe
00000030: 3f8f 3a3e 4ace adbe 9285 00be d72d af3e
00000040: 6c6c 103e 9181 f73d 8e3b d83e 92a7 07be
00000050: f987 e73e 0327 99be 3b91 ec3e bcf3 dc3e
00000060: 1c3a 45be 0d91 20be ec58 a8be be88 9d3d
00000070: aa8d 323f 0837 0abf c089 b9be 0679 963f
00000080: c99a 323d be2a 98be 44a4 c53e f74a 94be
00000090: 8ad2 6fbe 8dbd 66be fbbd 553e 1d3d edbd
000000a0: 37ec c3be c531 3f3f 2b64 683e 6872 ddbe
000000b0: 4034 633e 2ce1 cb3b c829 d9be 505e d23e
000000c0: 2780 ba3e 54bd 46be 8c80 8f3e a9e2 d93e
000000d0: 38c2 5c3f 2afe d13d 5999 ff3e a8c2 303e
000000e0: a527 e5be 9719 0abf a050 c53e fdf1 a13e
000000f0: 4e85 4e3f 184e 8bbe 7e4b 18be f3a5 413f

lstm.bias_ih_l0 f4 [16]
0.43458772 0.22676799 0.40277147 0.1608313 0.22306731 0.008507586 0.12775561 0.050054315
-0.032322433 -0.5493865 0.25326535 -0.51787573 0.022795746 0.6116455 -0.35120678 0.3936739
00000000: 4882 de3e de35 683e 1038 ce3e f6b0 243e
00000010: c26b 643e 6763 0b3c 5ed2 023e c105 4d3d
00000020: 8764 04bd 98a4 0cbf ffab 813e 8193 04bf
00000030: 25be ba3c cd94 1c3f 60d1 b3be a08f c93e

lstm.bias_hh_l0 f4 [16]
-0.15885834 0.38896975 0.048955057 0.09486852 0.4786061 0.65312517 0.34941408 0.0855161
-0.066635795 -0.24310368 0.15194118 0.2881691 0.17443042 -0.008733367 0.40215987 0.34143874
00000000: c3ab 22be 0b27 c73e 1985 483d 6d4a c23d
00000010: dc0b f53e 3633 273f 67e6 b23e 1123 af3d
00000020: 5978 88bd 2cf0 78be 7896 1b3e e68a 933e
00000030: e39d 323e 6516 0fbc e6e7 cd3e 0fd1 ae3e

fc.weight f4 [1, 4]
-0.9256172 0.4190498 0.41724855 -0.34275386
00000000: 40f5 6cbf b28d d63e 9aa1 d53e 6f7d afbe
